weight_hto.npy (npy, 1728 bytes, 1 tensors)

array f8 [10, 20]
00000000: 7a97 0947 f418 f63f 8973 5d9e 87d4 e83f
00000010: ac82 41dc 71bc 06c0 c400 aa0e 173a 0dc0
00000020: 50c7 addc 936a dd3f 21d5 03aa 06c0 ee3f
00000030: 7ff5 0b22 50cb ffbf 66f0 0063 b8d7 f0bf
00000040: 0b49 d336 ce72 f63f 3e72 aeae 8962 0240
00000050: ac95 33f2 0bfc fe3f 346f d83d 2928 e8bf
00000060: 3863 8362 fa3f d8bf 100b 41d5 318a e4bf
00000070: 68c0 3ab3 94d9 fd3f cfa9 36ba 4295 e3bf
00000080: ca37 051f 783e da3f e399 637b 65a3 edbf
00000090: 44b0 930e 9885 f43f 1a28 ffa5 1fb2 dd3f
000000a0: d441 56e3 9d80 f53f fa71 4e1d 8431 da3f
000000b0: 7b2e 76ff 8053 f33f f696 6a2d f7b6 f1bf
000000c0: 10c5 073b 8240 fdbf 683a 3beb 5994 fbbf
000000d0: c0d9 81c5 4217 d63f 2ba3 c772 7ae0 02c0
000000e0: 2cad cc94 7175 01c0 323e 759c 3ea2 f3bf
000000f0: 6f56 bfeb 34c6 06c0 6042 647a b01b ab3f
00000100: 208b 313a c6b0 fb3f e3e9 a867 1a14 ed3f
00000110: 9065 ecb3 b192 f03f 370a 8e6a 0f46 0040
00000120: 93a5 6ef6 445f f9bf 9e3b 442e e955 e13f
00000130: 7f39 fa92 62fd e43f 2236 46d2 ec95 e1bf
00000140: c7d9 7ccb a41f 0640 ac2e b9b9 29c3 e2bf
00000150: a04a a7c1 32ef fbbf df35 8c5a 91b3 f63f
00000160: 77fd 67bb 1c6f 03c0 0cd0 04a0 f64c f13f
00000170: 8036 070e c611 debf b3e6 01e1 6193 f13f
00000180: e3b2 5ea3 4b9f e0bf b0a3 8220 1ba0 e6bf
00000190: a397 63e4 6973 04c0 3145 655c dfba b7bf
000001a0: 1f99 63ca 332f e43f b7a5 f721 5d7d f23f
000001b0: 0585 76f1 4e9a 03c0 91a1 48e4 6f2f e2bf
000001c0: 3634 84b0 c4ea e13f 0faa bc0c 774e f8bf
000001d0: af4a 229a fb17 02c0 977d 6afb 07c3 e43f
000001e0: 8646 b42f d614 f5bf 488c 871c 97be fbbf
000001f0: 9f63 d659 41b5 f23f 767b 6c8d 5286 f53f
00000200: 9395 06dd b6c3 e93f 6aa4 7b1a 0135 fd3f
00000210: 28ce 138a 2dc0 d43f ae90 bbda 99a1 d5bf
00000220: 08a4 f55b b079 f8bf 770c 913f b3dc 0340
00000230: af66 c2a9 6599 fabf 635e b353 4723 c73f
00000240: 0445 b6ca 0cb7 09c0 e7bd 872b 8722 febf
00000250: 50ce 6bc8 c7f6 f73f 5be7 ed78 2aae f1bf
00000260: 0253 bd34 1ce1 01c0 d5e9 cb4c 89e4 f0bf
00000270: ff50 87e7 174b e2bf 40fd 51a8 6aad e73f
00000280: 34f6 8546 100c 03c0 61f4 6b51 ac5c 1040
00000290: 0b33 c63c 179d f4bf cec1 8ba9 d14e cdbf
000002a0: 8d3f 7e34 7ea4 e1bf ee41 4a77 ad0d f1bf
000002b0: 49cc 60d1 eef8 f03f 540c 8185 b8b1 e53f
000002c0: b1c7 5cc0 5643 f9bf bd2d f5c9 823a f8bf
000002d0: bb2d f981 9a4b f83f 0933 d121 7d74 f0bf
000002e0: 2f8d 4c20 d447 f0bf b861 9cbc 09bd e0bf
000002f0: f784 6727 e676 fdbf 1a3d e55e 3e05 f8bf
00000300: caef a145 c075 e9bf 844c a75a 01da a33f
00000310: 0e62 85c7 8cf9 d03f 6613 7142 d680 993f
00000320: 6d7d 6dd1 b50e 06c0 8555 a175 b268 d43f
00000330: 6b13 ee08 ce3b d7bf c639 fc13 2520 c03f
00000340: 1dcb a05c a58d 02c0 e323 9ed7 d39e 0440
00000350: 2740 2dc5 e25a f43f 22bc 4277 9f87 c3bf
00000360: 7016 7918 13e8 fc3f efd2 3d9d b306 f6bf
00000370: 83db 2d71 835d e7bf 0be9 0be2 3146 07c0
00000380: e582 99b9 b56d 0040 183d 6f07 8101 d53f
00000390: cc07 ad6b c8a5 0140 158a e050 26ec f0bf
000003a0: 2b20 fd89 9a29 f5bf 4eb8 dad2 2fa5 db3f
000003b0: a79c 969e 4e30 febf eef3 1f91 3525 e83f
000003c0: 41cb dd90 509e 03c0 5ea2 41a6 9d71 f1bf
000003d0: 842a 7876 c89c f03f 1149 d8f7 01c0 db3f
000003e0: 4777 648d 9559 e93f 157e e1ff b399 f4bf
000003f0: 2048 f876 7293 01c0 79da f752 1650 e13f
00000400: a225 351b 538d 04c0 384f 9860 f5ed e2bf
00000410: ab7f ad89 8629 f13f a14c 2d97 fbc0 01c0
00000420: 1ccb a0f5 0283 0640 feb2 fbd1 f608 c63f
00000430: ac90 7234 4aae e1bf 94bb cb08 9733 0440
00000440: 79dc 7aa6 f6b5 db3f d129 cba4 cf5c f9bf
00000450: 042f 8a76 4bec 00c0 e65a ad91 4d71 e8bf
00000460: 7f91 3175 0b6d 02c0 7f52 a0f3 ace2 f8bf
00000470: 4b3f 7013 e2fc e8bf 17f5 145f d7c8 f3bf
00000480: 298e 6fd1 2da9 e4bf b8e8 3119 cde2 f7bf
00000490: 2a5c b794 9890 f63f 6b10 1aaf be25 ad3f
000004a0: 734d e821 6ab3 e33f 235f 4918 c8bc e4bf
000004b0: fe6d 7814 392d fbbf 31fb f008 fac4 f63f
000004c0: 08fc d95a c92b 0140 41af 2240 2c5b 08c0
000004d0: 251a 8126 4eb6 ffbf 9a89 3249 6bd1 eabf
000004e0: 0012 97cc cb14 abbf aec3 6ef5 be80 d13f
000004f0: a8bb f1fb e492 fa3f 2db6 f592 5897 e8bf
00000500: b707 97e0 c0a1 f73f 64f1 b59b c025 07c0
00000510: 2262 fb82 bf66 e83f 9671 e327 7843 d33f
00000520: 10e0 bea5 b7bf e43f b9f0 a0d5 d83a 0ac0
00000530: 7852 5b00 2508 05c0 d55c 05bb d472 c03f
00000540: 5a7b 1df6 1706 febf 78d5 072f 3cdd e93f
00000550: b9a7 37ce a4af fd3f 91ad fc5b 1326 e4bf
00000560: 4636 f124 ac55 fdbf 5b98 c175 b6d7 e0bf
00000570: 282a b471 c580 02c0 0165 e690 1377 f5bf
00000580: 6903 9ec5 367d e9bf a57c f49e a8ac b03f
00000590: dd43 d775 11d1 fa3f 8ef7 b91a 760b e53f
000005a0: 41e4 f729 7c61 ea3f 592f c1f5 2652 d6bf
000005b0: 0c12 df8f e6b0 f13f 2a33 d258 bee3 cabf
000005c0: 8821 4b87 b93c d13f 3cb3 bce0 0e40 06c0
000005d0: 4ea2 3cbc 46b9 e83f 4a2d 54b3 fa8a 03c0
000005e0: 733d be89 51d4 0440 d7fe d61f f994 f8bf
000005f0: 4dca 66bc 32a0 f83f 47c2 ef07 5294 fabf
00000600: 185f 01cf d8f2 04c0 0215 7b64 cd81 fabf
00000610: 3804 2db6 f678 f53f 27e2 a49f b685 e43f
00000620: eb38 d439 6097 ee3f 36fd 5de0 dfd2 d7bf
00000630: 0816 6885 9ef0 01c0 4a87 3307 148e eebf
1.381092336168392 0.7759435742442388 -2.842014046429844 -3.6533642907744213 0.4596299796167971 0.96094067770051 -1.9871369676542086 -1.0526660792666234
1.403028692399462 2.2981141707407735 1.9365348301883882 -0.7549024780196079 -0.3789049112361229 -0.6418694653624204 1.8656203271057397 -0.6119702946646671
0.4100628188069747 -0.9261958513205254 1.282615715924309 0.46399680338493143 1.3439005737637801 0.4092722212024281 1.2078866938562942 -1.1071693204953
-1.8282491975663255 -1.7237185658192633 0.3451697281629116 -2.3596085517096035 -2.182345545288305 -1.2271104919090132 -2.8467806260840045 0.05294562810934589
1.730657794302438 0.908703997097572 1.0358140018709925 2.0342090916249407 -1.5857591272600515 0.5417371657984977 0.6559307928708192 -0.5495514017981729
2.765451040027276 -0.5863236071977176 -1.7458980145062597 1.4188397919673361 -2.4292540207968005 1.0812898874983174 -0.4698348175996685 1.0984820165016742
-0.5194452467745488 -0.707044185158443 -2.5563543169873397 -0.09269519811393391 0.6307620003615603 1.1556063963747485 -2.450345884732658 -0.5682906588236155
0.5599082419954644 -1.5191565034425627 -2.2617103616442686 0.6488075170963609 -1.3175870765157085 -1.7340308298523883 1.1692517766261756 1.3452935718885022
0.8051409069927778 1.8254405054560956 0.3242296074306261 -0.33798834190953186 -1.529709204880648 2.4827637640133235 -1.662450469133926 0.1807641180700897
-3.2143798672556176 -1.883429689445501 1.497749121565807 -1.1050209735680798 -2.2349170799519706 -1.055795001970741 -0.5716666719477245 0.739919022322205
-2.3808904180175663 4.090501091207529 -1.288352239035876 -0.22896786478624026 -0.5513297105080582 -1.0658392581718732 1.0607746294815732 0.6779444320203631
-1.5789401544720756 -1.514284886262302 1.5184578969082014 -1.028439647768382 -1.0175362836533386 -0.5230759319120386 -1.8415280856355005 -1.501280184445767
-0.7956239089976347 0.03877262336359258 0.2652313183257612 0.02490553646591156 -2.7571827279604606 0.3188902043087512 -0.3630251967627404 0.12598098255007367
-2.319163058907533 2.577552494538837 1.2721889211861794 -0.15257638285899683 1.806658835981036 -1.3766361372228706 -0.7301652155427835 -2.9092748317608588
2.0535692691777165 0.32821679807689597 2.2059486782245354 -1.0576537284147254 -1.3226571455179605 0.43195720282790695 -1.8867937273842388 0.754542144247919
-2.452302104729285 -1.0902382368459693 1.038277113696183 0.4335942192420968 0.7921855699130241 -1.2875251765580107 -2.1969956678886007 0.5410262699577536
-2.569006168898981 -0.5915476690883912 1.0726380708729077 -2.21922987086289 2.8139704885192156 0.1721485638912767 -0.5525256180158258 2.525190418927602
0.4329811692982229 -1.5851589619875208 -2.115378309337645 -0.7638309331185524 -2.3032445102455195 -1.5553407208109602 -0.7808695201547179 -1.2365335191855757
-0.6456517305891271 -1.4928713783433931 1.4103017625072973 0.05692859542344383 0.6156511938337829 -0.6480446314189731 -1.6985407638193233 1.4230900143881622
2.146380147721633 -3.0445179949364563 -1.9820081237863942 -0.8380638532292324 -0.05289303657949418 0.2734830281070185 1.6608629075596841 -0.768474852591401
1.4769905827565546 -2.8934337773227288 0.7625424917451407 0.30099300284725794 0.648402999612701 -3.2787338914623345 -2.6289768245572382 0.12850436336405005
-1.876487695109708 0.808256236893313 1.8553817801825814 -0.6296479031201888 -1.8334161227279693 -0.5263321208883655 -2.3128765948397536 -1.3415713939814966
-0.7965349063598356 0.0651345623086735 1.6760420420798632 0.6576490900040299 0.8244000262922172 -0.3487641715953394 1.105688631055389 -0.21007518135993425
0.2693313428140063 -2.78127837730281 0.7726167370320327 -2.4428609857620005 2.6036711465055133 -1.5363703960173802 1.5391108855661912 -1.6612110433599285
-2.618577592114786 -1.6566900181799729 1.3420321575397463 0.6413224332855564 0.9559785012695817 -0.37224575911382674 -2.242489855040507 -0.9548435345315991
