weight_ith.npy (npy, 125568 bytes, 1 tensors)

array f8 [20, 784]
00000000: c0b9 dad1 4bc2 ee3f 00af e5b4 3974 ddbf
00000010: 48a7 4ad6 2cae e9bf 7a38 3e0b f3c6 c2bf
00000020: 960d a326 e38e e8bf e6c7 f0db 4401 cf3f
00000030: 6654 638d 7054 e83f ccee d8b3 9675 ab3f
00000040: 14ff cf2c 9892 e8bf cfd7 2883 f768 c2bf
00000050: a729 4e97 1fce eb3f ec09 8e39 ee93 ddbf
00000060: ce97 5621 bd10 f13f 02c0 9195 5efc c4bf
00000070: 87d3 eba1 513c e1bf a112 e004 b113 ebbf
00000080: 0d91 10ac 2d4f ec3f 41b0 ee58 353a c33f
00000090: 6c79 2cb9 b57f d3bf 00ff dd2d 8e53 b03f
000000a0: f0b3 be45 e09a c7bf 10b8 10b0 b74c c2bf
000000b0: 8819 113e c87c cdbf 8887 21a9 8020 c53f
000000c0: 5af9 8ea6 5487 e8bf eca1 0eff 0dbc da3f
000000d0: c43f c3de bd41 d23f 6e87 0f93 c416 e8bf
000000e0: e032 2785 5623 e4bf 52cb de84 0bbf edbf
000000f0: 46f1 58b9 ce6e e7bf de04 2a0c 8ad3 c13f
00000100: 72d4 5b35 c07e efbf 32b2 c209 94f2 ed3f
00000110: 2c67 dbc8 23fd bfbf a681 2756 98af db3f
00000120: 0c91 010b 9d9e efbf edac f5c3 905e f0bf
00000130: ee78 9877 5e5a d5bf 2f48 f491 ed56 ec3f
00000140: 2882 1c67 ef20 c8bf 2091 16da 5ffc c3bf
00000150: e1ae 498e 77fa e8bf a6a3 6588 aa0d ef3f
00000160: a1c7 840c ecae cdbf 9b95 b510 e62b e7bf
00000170: 4f0b 22bc 8d82 ec3f ec8b 53d2 a20e e43f
00000180: a25e 1947 1667 e33f ae21 2494 27e8 cbbf
00000190: 7635 56df 1a36 c2bf 3714 4ffd fe90 e4bf
000001a0: 7159 0087 0e9a ecbf 90fe 7807 ef5e c5bf
000001b0: 1eff 0ca9 9f13 ecbf 3c1a e109 e7c7 ed3f
000001c0: c0fe 31e7 079d c4bf 9d7e 8f5b c2ab d7bf
000001d0: 3079 6e95 0391 e5bf 77ea fb6c b501 a13f
000001e0: e5ae f27b cc8a d93f f092 9a3c cfbb c9bf
000001f0: 8f54 4477 48eb ea3f 7f78 c719 06a5 ec3f
00000200: ea61 e6ef 9936 d33f 8ada bd89 26ce dfbf
00000210: d355 e0d5 ad43 edbf b403 321e c328 e4bf
00000220: 87a4 fbc5 b39c ecbf 4105 8fa8 e69b b8bf
00000230: 1750 cfa6 7b07 ee3f 820f 930c b8a6 f53f
00000240: 6fd4 b413 ab38 dabf b42b f2b1 fa3c b8bf
00000250: cd26 913e 250c b7bf 26db 0a18 8ebc 61bf
00000260: cfe8 bca9 774c e8bf 00b5 0ac4 65da c43f
00000270: 422b 2231 c280 e3bf 17c2 4802 9893 d6bf
00000280: a334 ee51 ea39 b8bf 3899 07cd 7dfc ebbf
00000290: 3dd8 d348 4097 e13f cc9b 7eee 93d0 e3bf
000002a0: bb7b 4380 dc90 d33f 0e39 ef9d 7c9e e5bf
000002b0: f872 db2f 246a edbf 5a15 99aa 710b a5bf
000002c0: 1f28 8a6f 7172 e23f c804 d32e d6dc e63f
000002d0: 1c3c 6747 31a0 e3bf c0f6 c86d c3d4 d5bf
000002e0: f68a 11f2 642e de3f 8c1f 7664 8cb6 ecbf
000002f0: 16e8 d289 2b9c e0bf 8ae9 278d a75e 9cbf
00000300: b952 bcdc b31b f33f 7dd6 e8dd abeb df3f
00000310: c18c d629 af91 f03f 689d 0716 1fec f03f
00000320: 8c18 ffbd 86b4 85bf 9640 0161 ee58 c03f
00000330: 811c 8665 f5c3 e5bf e829 7e95 2f0f d3bf
00000340: 9fbe 7ec8 49dd d9bf 7cea ee09 71cb a8bf
00000350: 93b1 8c8d 9fc1 c0bf 09f9 c0a6 de08 abbf
00000360: 8c2c 65c2 b74d d13f dc59 555b de20 a0bf
00000370: 1db8 876a 52fa c4bf 6a08 91ed 702a eebf
00000380: e1fd f3bc a463 d0bf ecc7 0b4c 0a95 e03f
00000390: 1639 8981 e599 e63f 8103 739e d52c c8bf
000003a0: d76a 05f2 7a0a efbf a038 ddb8 910c d9bf
000003b0: e733 ddbf 4ece f23f 3533 08e8 aca3 e2bf
000003c0: 7fa7 7d0e 2af9 f23f 77d4 d72e cb13 c2bf
000003d0: 2fb3 fcdc b6a5 e1bf b19e bd3a 9ecf d0bf
000003e0: 75d5 e3ad cb2a ef3f 8fe0 6037 822a e23f
000003f0: 1ea5 19df 3d02 f33f 83b3 bcab fc09 e83f
00000400: dc38 8b6d f540 c9bf e3e5 5375 c5ab d43f
00000410: 551e b5cd 5314 d43f 5718 3b49 142d ebbf
00000420: 56ee fa92 f842 d8bf 3b41 a287 5815 f8bf
00000430: b49a 37c1 b967 dcbf 0ad7 3128 f552 f2bf
00000440: 2209 742d 75e7 e03f 4fa3 555f 6d5d c03f
00000450: 9870 d12d 4225 dfbf 3b96 b1a2 194c d1bf
00000460: 63dc 0eba cefa d23f b3a2 2376 4cfc babf
00000470: 39c4 1e2d fa38 833f 39f2 f34d c16f df3f
00000480: 7bd6 d8b4 b749 d3bf a086 31e3 0a53 d9bf
00000490: b7f9 e9f9 432d c9bf 25cb f8e3 77bc e8bf
000004a0: a60b dbb0 7aa3 ddbf 2f3e 7dff 1433 bbbf
000004b0: a925 1220 7a4e eabf fa1d 7337 89b7 f2bf
000004c0: acbe 5645 41f6 e4bf 282e cc1a 32ca 793f
000004d0: e373 5002 5212 ec3f c651 84f7 093b a33f
000004e0: 8d0c ff3e b17d e43f 6d30 a45a 36f1 cf3f
000004f0: 5414 7459 8de0 ebbf fc98 c2a4 69bb ecbf
00000500: d574 c99a 2771 e2bf c0f4 1885 58d7 dbbf
00000510: 9b19 c5ea 2ca9 c63f df32 82ce d42b e1bf
00000520: 5f98 b6ca 6b47 e63f 1313 6b43 c3e5 e5bf
00000530: 61ce 0cb2 bc41 e1bf 00b4 c7d9 1fb0 6abf
00000540: baa0 1529 f8e6 e5bf 1288 6306 acc4 cebf
00000550: 0be3 006c 4d66 e1bf c118 cd29 b5d3 e53f
00000560: b00d 9de0 24cf d53f f73e a5fb 779a b83f
00000570: c7a8 86a1 faba e23f a49d 3dea c210 dabf
00000580: 02b2 38a5 2b27 eb3f 14d0 f69e 3e24 b83f
00000590: 42d0 9951 ff87 d03f 8635 7200 c19e d13f
000005a0: f7cd 0764 3536 e73f c376 32a9 0895 eebf
000005b0: dbef 0cd5 c726 e03f d510 742d f8b0 ca3f
000005c0: 8156 de59 79d2 a03f ce03 e7af 4065 c3bf
000005d0: c448 79ed e6a0 c73f d66e 0e94 d7f6 e3bf
000005e0: bb0c d01d a8e4 f13f 14a0 6f16 e9d1 d4bf
000005f0: 3263 c385 3992 eebf e3de e7c6 2556 ecbf
00000600: f746 24e9 0c08 ec3f 7c3e d5c2 18ed e4bf
00000610: c3ce 4d11 6ed3 eb3f e7b4 6ee0 f5e1 c1bf
00000620: 864b 09d7 ae92 eb3f e909 f41d ecc8 7ebf
00000630: cb37 97f7 81af e5bf ef89 5e95 e13e f33f
00000640: 1e1c 3ad9 13b0 e13f 5cab 3347 06ca a93f
00000650: f4cf f0cb 5d89 c9bf 5bbd 8a6a c35d d5bf
00000660: af14 039d 7ac9 e0bf 1995 98b1 fe6c e7bf
00000670: 24cd 8ff3 47a9 b0bf 4f6e 56f3 fd3a e2bf
00000680: 65a0 83fd 458f edbf b0bb 7880 a365 d8bf
00000690: 9352 3234 3c6a ed3f a7b5 b17c 96ea d6bf
000006a0: 3bed 0794 adb7 cabf a14e 7c37 9b02 d4bf
000006b0: ed31 245d 9703 f0bf 9a2c 158f dcc3 f53f
000006c0: 912f ebf7 c54d cd3f 19cc 4263 d350 c4bf
000006d0: 14f3 534f c324 e0bf ddb8 51b1 b6ff ee3f
000006e0: cd11 8219 a1e7 abbf afbf e12d d06b f23f
000006f0: 41a9 2394 1a4f c6bf 1c65 5ba0 412a cbbf
00000700: 32e6 ec23 cfaf cf3f e110 45cd 67e3 e73f
00000710: be34 5570 94ef c03f 5bc8 67dc b819 de3f
00000720: 1e1b c49a 428d d63f 5edd 34c9 3549 f0bf
00000730: a8a6 3a46 c3ae d83f 31dc c3d4 5ee6 e53f
00000740: 74a6 0c3e 0a2c e6bf 7799 3f30 9a77 f1bf
00000750: ea32 4ecf 129f e5bf 7b4c 05ed dbf4 e43f
00000760: 756f c06e 8715 c5bf 5fac 257e d7de cfbf
00000770: cf67 5624 8f9c b63f 2bf1 d5e2 38ea f33f
00000780: 06a1 8bae 9a8e cfbf da18 4080 d233 d03f
00000790: f338 18bc afa4 d2bf 460e 8c13 c970 ed3f
000007a0: da89 618a 6c82 d3bf da16 bff5 1741 d3bf
000007b0: 0342 59c6 0036 c7bf 60b8 6d0f cf34 bf3f
000007c0: 7843 9c09 ceee d83f 5e16 0749 dab1 bdbf
000007d0: 9a83 7d20 5211 cfbf 9c0f 6859 369f bd3f
000007e0: efcc 2aa0 0536 e3bf 7392 61c4 56c5 c93f
000007f0: 21f5 f542 bb4d e5bf 2844 1981 7940 e03f
0.9612177942961395 -0.46021883645765627 -0.8025116143591982 -0.14669645356156363 -0.767442298376795 0.2422262262276142 0.7603075753674033 0.05363150544550663
-0.7678948283428064 -0.14382833389544067 0.8689115481550304 -0.4621539651926969 1.0665866186404744 -0.16395170500936734 -0.5386131441615455 -0.8461537451954265
0.8846653328551227 0.1502138790359613 -0.30466979106304026 0.06377495403102884 -0.18441394238962472 -0.14296623322428603 -0.2303705504475142 0.1650544000468097
-0.7665198567481568 0.4177279463570176 0.2852625537316238 -0.7527792808798333 -0.6293137169501186 -0.9295709223864412 -0.7322763080660841 0.1392681655307006
-0.9842225114977181 0.9358616057048208 -0.12495635656105425 0.43259247220523844 -0.988111993309333 -1.0230872778582196 -0.3336406867910132 0.885611329142426
-0.18850510153517175 -0.1561393561252169 -0.7805745867785526 0.9704182304386577 -0.23190069781554448 -0.7241087271074095 0.8909367250892987 0.6267866237579915
0.6063338650373746 -0.21802229627088593 -0.14227615265955834 -0.6426997134627815 -0.8938057553048521 -0.16695964684366915 -0.8773954679272469 0.9306521599726874
-0.1610422018893498 -0.36985835019548025 -0.6739519041619015 0.03321616130229626 0.39909660438818967 -0.20104399165315767 0.8412210778648318 0.8951445106029182
0.30020759990432444 -0.4969574303753822 -0.9145116021415397 -0.6299758519891072 -0.8941286913733543 -0.09612886061861038 0.9384134538654533 1.3532028666677154
-0.40970875668001033 -0.09468046993622076 -0.09002907540812118 -0.0021651053687849085 -0.7593344035333532 0.16291496345858292 -0.6094675979269157 -0.35275840972011124
-0.09463371753936882 -0.8745717052923174 0.5497132704174487 -0.619211164293 0.3057166340421948 -0.6755965313584811 -0.9192067084037197 -0.04110293586249254
0.576470105982711 0.7144575991188953 -0.6133047480196896 -0.3411110469931877 0.4715816844892936 -0.897283741201123 -0.5190637294647356 -0.02770482825324331
1.1942633268819647 0.4987592379651245 1.0355674394893841 1.057646833471006 -0.010598232911331239 0.12771396385733585 -0.6801707251442083 -0.29780187224301224
-0.40413136081313356 -0.04842713590865785 -0.13090891276932534 -0.05280204568451736 0.27036851867587397 -0.0315007673731775 -0.1638892192999614 -0.9426808013888721
-0.25608175709200337 0.518193386580831 0.7062861948013814 -0.1888682387998664 -0.9700293280578433 -0.39139216473712146 1.1753680700960503 -0.5824799091220486
1.1858311239288637 -0.1412290552831654 -0.5514787975458598 -0.2626720021857905 0.9739740749634352 0.5676890451059239 1.188047286496221 0.7512191156616698
-0.1972948822862638 0.32298408944879337 0.31374068344709843 -0.8492528372087332 -0.37908758500609474 -1.5052113817401522 -0.443830908478428 -1.1452533311943989
0.5282541167983121 0.1278511729717828 -0.4866490790789242 -0.2702697838597918 0.2965580765698574 -0.10541227230317922 0.009386019231756847 0.4911959897288259
-0.3013743654331404 -0.39569351374493955 -0.1966938944132843 -0.7730063870024863 -0.4631029822450564 -0.1062481998208049 -0.8220797182449832 -1.1698085943224883
-0.6550604204439501 0.006296344491385088 0.8772363705826333 0.03755980631300164 0.6403433065792271 0.24954871583793495 -0.8711611506593138 -0.8978775232287997
-0.576312830274811 -0.43501866338540296 0.17703782523512931 -0.5366004975672601 0.6962183913463028 -0.6842972103846442 -0.5392745473422559 -0.0032578107914020826
-0.6844445040160487 -0.24037695228531725 -0.5437380895083107 0.6820932213238607 0.34076806960021155 0.09610700505913515 0.5853245882801951 -0.4072730338579851
0.8485315539342653 0.09430304890594271 0.2583006188281197 0.2753145698887568 0.7253672555656853 -0.9556926064139691 0.5047339593070278 0.2085256788196889
0.03285578939464263 -0.15152748669609512 0.18459784121893652 -0.6238820926405093 1.118324390846097 -0.3253119200803678 -0.9553496944964535 -0.8855160603406741
0.8759827188061696 -0.6539424710590107 0.8695593202559951 -0.13970826586356752 0.8616556358268646 -0.007515833217669223 -0.6776742778545154 1.2028518519151665
0.5527438395228079 0.050369449798231186 -0.1995045896343296 -0.3338478603790997 -0.524594599403505 -0.7320550411865582 -0.06508302398997451 -0.5697011711776642
-0.9237394286583479 -0.38120353265815776 0.9192181605781847 -0.35806810547986817 -0.20873040893625636 -0.3126590768672291 -1.000876773675482 1.3603177632492476
0.22893595319180496 -0.15871660563206616 -0.5044876622556296 0.9687150443330911 -0.05450156628015499 1.1513215820559528 -0.1742890570961411 -0.21222706155712323
0.2475527692238742 0.7465094575095713 0.13231139645578155 0.47031995319333014 0.3523718367945764 -1.0178735599164024 0.3856666742163761 0.6843713908737127
-0.6928759776976237 -1.091699779959155 -0.6756681488928653 0.6548900250731003 -0.16471951396749387 -0.248988091082853 0.0883264030184414 1.244683157040593
-0.24653943560338848 0.2531629803128347 -0.2913016640531076 0.9200177556780964 -0.3048354483964012 -0.3008479976527788 -0.18133554158204399 0.12189954878496811
0.3895754903651816 -0.11599506647970645 -0.24271608911933812 0.11571063692832556 -0.6003444793954297 0.20133480633662124 -0.6657387073352404 0.5078704377612029
